LSTM_data/model/epoch_3000.pth (torch, 41378 bytes, 16 tensors)

lstm.weight_ih_l0 f4 [80, 4]
0	0x3e956217	0.291764
1	0xbe9a031f	-0.30080506
2	0x3e1436fe	0.14474103
3	0xbcfb40d6	-0.030670565
4	0xbe312bd1	-0.17301871
5	0x3e8e9460	0.27847576
6	0xbf02504b	-0.5090377
7	0x3e9b0884	0.30279934
8	0x3e88b4f0	0.26700544
9	0xbed59a6e	-0.41719383
10	0xbdd0bf3f	-0.10192727
11	0xbd6bdcaf	-0.057583507
12	0x3e2aca24	0.16678673
13	0xbf0e1cf0	-0.55512905
14	0x3e833e00	0.2563324
15	0xbd2acbb2	-0.041698165
16	0x3e9b5790	0.30340242
17	0xbe03186b	-0.12802283
18	0xbe3f51e1	-0.18683578
19	0xbd6292be	-0.055315726
20	0x3d832fd0	0.06405604
21	0x3ec189e6	0.3780052
22	0x3dcd9886	0.10038857
23	0x3e83b8ce	0.25726932
24	0xbe1a240d	-0.15052815
25	0xbe84bb2b	-0.25924048
26	0xbe33c074	-0.17553884
27	0x3f182c26	0.59442365
28	0x3d084b21	0.033274774
29	0xbf83cd06	-1.0296943
30	0xbe070f68	-0.13189471
31	0xbd9503d9	-0.072761245
32	0x3de96128	0.11395484
33	0xbf2acc28	-0.6671777
34	0xbe063ca3	-0.13109069
35	0x3e3b8fb6	0.1831654
36	0x3ec17760	0.37786388
37	0xbf44713d	-0.7673529
38	0x3e509bdc	0.20371956
39	0xbd9e3b9e	-0.07726215
40	0x3cbbc88d	0.022922779
41	0x3f9edfe5	1.2412077
42	0xbece0573	-0.40238532
43	0xbe134641	-0.14382268
44	0x3f7e73e7	0.993956
45	0xbf305fcb	-0.6889617
46	0xbeb97220	-0.36219883
47	0x3f3e3179	0.7429424
48	0xbdf17e1f	-0.11791634
49	0xbe17a9b5	-0.14810832
50	0x3e82db4c	0.25557935
51	0x3e8d2afd	0.2757186
52	0x3e576b84	0.21037108
53	0xbf0617c0	-0.5237999
54	0xba98a3f8	-0.0011645546
55	0x3e492072	0.19641283
56	0xbe092e92	-0.13396671
57	0x3edca6b5	0.43095937
58	0x3d70562e	0.058675937
59	0x3e59a3e7	0.2125393
60	0x3e954a93	0.29158458
61	0xbf436312	-0.76323044
62	0xbd5b135c	-0.05348526
63	0xbda113d8	-0.07865113
64	0x3eb1d2d1	0.34731153
65	0xbf749565	-0.9554046
66	0x3def4a31	0.11684073
67	0x3d5be423	0.053684365
68	0x3ef1077e	0.4707603
69	0xbe84b036	-0.25915688
70	0x3d68cd2f	0.056836303
71	0x3c0310b9	0.007999592
72	0x3e2e55fa	0.17024985
73	0xbf998528	-1.1993761
74	0x3e8662e2	0.26247317
75	0xbdabd939	-0.08391041
76	0x3e883dc1	0.26609614
77	0x3efcc690	0.4937024
78	0x3e103fdc	0.1408686
79	0x3e6a4ce9	0.22880901
80	0xbd342bd0	-0.043987095
81	0x3e1a24cd	0.15053101
82	0xbde187a5	-0.110122
83	0x3df63134	0.120211035
84	0xbe1cad35	-0.15300448
85	0x3edbab07	0.4290392
86	0xbf4e18f2	-0.80506814
87	0x3ee0c01d	0.4389657
88	0x3e8cb9be	0.2748546
89	0xbe6ddcae	-0.23228714
90	0xbe6d1bf2	-0.23155192
91	0x3e378779	0.17922772
92	0x3c930908	0.017948642
93	0xbe62b96e	-0.22141048
94	0x3d60e0b6	0.0549018
95	0x3e14d47f	0.14534186
96	0x3eaf6321	0.34255317
97	0xbea9112e	-0.3302092
98	0x3d1e6013	0.038665842
99	0x3dae412b	0.085085236
100	0x3ef36cff	0.47544095
101	0x3f58687e	0.8453444
102	0x3e138711	0.14406992
103	0x3cab21f7	0.02089022
104	0x3d93cd6a	0.07216914
105	0xbe991bf1	-0.2990413
106	0xbe4bc89e	-0.19900748
107	0x3e15f2ba	0.14643374
108	0xbe8a4f43	-0.27013597
109	0xbf689fc5	-0.9086879
110	0x3e5ff2ee	0.21870014
111	0xbefe0b46	-0.49617976
112	0x3edaa925	0.42707172
113	0xbe801ba9	-0.25021103
114	0xbeb1a42f	-0.34695575
115	0x3f0c9e14	0.5492871
116	0x3ea1d534	0.31607974
117	0xbeef9335	-0.46791998
118	0x3e1ac14b	0.15112798
119	0x3e367dce	0.17821428
120	0x3f0a484d	0.5401657
121	0x3e863982	0.2621575
122	0xbf51f4bd	-0.82014066
123	0x3e561e9f	0.20910119
124	0x3f23d384	0.6399462
125	0xbf0da3a2	-0.5532781
126	0xbee12edc	-0.43981063
127	0x3eae44cb	0.3403686
128	0xbc118fff	-0.008884429
129	0xbc923ad2	-0.017850313
130	0xba8e995d	-0.0010879446
131	0x3edcf02a	0.4315198
132	0x3e881d10	0.26584673
133	0xbee16642	-0.4402333
134	0xbe5e2085	-0.21692093
135	0x3eff7fae	0.499021
136	0xbcd68791	-0.02618769
137	0x3ee1ce4b	0.44102702
138	0xbe416593	-0.18886404
139	0x3f00d66a	0.5032717
140	0x3ebe4b4c	0.37166822
141	0xbf0bd4d5	-0.5462163
142	0x3d33d754	0.043906525
143	0x3bf7a0aa	0.0075569944
144	0x3f00d376	0.50322664
145	0xbf459734	-0.7718384
146	0xbe379c38	-0.17930686
147	0x3e141670	0.14461684
148	0x3eae1c54	0.34005988
149	0xbf422bd9	-0.75848156
150	0x3e3b22da	0.18275014
151	0x3a941f40	0.0011300817
152	0x3c6914bb	0.014226134
153	0xbfba86a3	-1.4572338
154	0x3e7d1db9	0.2471837
155	0xbd427df0	-0.047483385
156	0x3e12f5cc	0.14351577
157	0x3f400c30	0.75018597
158	0xbe85e838	-0.2615373
159	0x3ed83b32	0.42232662
160	0xbdfb2d33	-0.122644804
161	0x3d9307ba	0.07179208
162	0x3f250b56	0.6447042
163	0xbe0d26c5	-0.1378432
164	0x3bada6c4	0.005299421
165	0xbc420da0	-0.011844069
166	0x3d4e1bdf	0.05031955
167	0x3c80115e	0.015633281
168	0x3eb70756	0.35747784
169	0xbeb4d419	-0.35318068
170	0xbc85554a	-0.01627602
171	0x3cfa2106	0.030533325
172	0x3d3e743d	0.046497572
173	0x3eea2d84	0.4573785
174	0x3c0eedd7	0.008723698
175	0xbd2856e2	-0.041098483
176	0x3efce10f	0.49390456
177	0xbee35166	-0.4439804
178	0xbee2493a	-0.44196492
179	0x3f1f8118	0.62306356
180	0x3db4c687	0.088269286
181	0xbf6c09b3	-0.922023
182	0x3e13984e	0.14413568
183	0xbe938cc1	-0.28818324
184	0x3e26f419	0.16304053
185	0xbf59b462	-0.8504087
186	0xbeb086cc	-0.34477842
187	0x3d7386fb	0.0594549
188	0xbdaa6c79	-0.08321471
189	0x3fc11a87	1.508622
190	0xbe991bd5	-0.29904047
191	0x3de131a5	0.10995797
192	0x3ee60e42	0.44932753
193	0xbe963cf2	-0.29343373
194	0xbee6e946	-0.45099849
195	0x3f0dca37	0.5538668
196	0x3d1fac73	0.03898282
197	0xbf992e47	-1.1967248
198	0x3ede1e34	0.43382418
199	0xbe18c127	-0.14917432
200	0xbe4874c4	-0.19575793
201	0x3edd1034	0.43176425
202	0x3f42515d	0.759054
203	0xbe9a4c20	-0.30136204
204	0xbf589a6a	-0.8461062
205	0x3f580814	0.84387326
206	0x3f0818b1	0.53162676
207	0xbf198a01	-0.599762
208	0x3e399fb2	0.18127325
209	0xbf620fcf	-0.8830537
210	0x3cdbf35a	0.026849438
211	0xbe033d58	-0.1281637
212	0x3e540736	0.20705876
213	0xbe25fba1	-0.1620927
214	0xbbe9178a	-0.007113402
215	0x3ea45fb7	0.32104275
216	0xbe07a13b	-0.13245098
217	0x3ef6f5f2	0.48234516
218	0x3d7c0fe0	0.061538577
219	0x3e5d7fdb	0.21630804
220	0x3ef87849	0.4852927
221	0xbeec590a	-0.4616168
222	0xbe52202f	-0.2052009
223	0x3f1d2684	0.61386895
224	0x3f10e92d	0.566058
225	0xbf19ffce	-0.6015595
226	0xbedfce5f	-0.43712136
227	0x3f457c23	0.7714254
228	0xbea60b06	-0.32430285
229	0x3eccc5da	0.399947
230	0x3e7b99f5	0.24570449
231	0xbf23dbd0	-0.6400728
232	0xbe8d6541	-0.27616313
233	0x3ec566b1	0.3855491
234	0x3e8ec58c	0.2788509
235	0xbee10884	-0.4395181
236	0x3e5c92a9	0.21540321
237	0xbf714c79	-0.94257313
238	0xbe1da999	-0.15396728
239	0xbe6f7e1c	-0.2338795
240	0x3cc40ae3	0.023930972
241	0xbf229fc9	-0.6352506
242	0xbf23a46d	-0.6392277
243	0x3e2d488d	0.16922207
244	0x3e8ccb3f	0.27498814
245	0x3eb39163	0.3507186
246	0x3e415934	0.18881685
247	0xbd9fe808	-0.07807928
248	0x3c811b1d	0.015759999
249	0xbf4537bc	-0.7703817
250	0x3ec61380	0.38686752
251	0xbd350166	-0.044190787
252	0x3ebaedde	0.36509603
253	0xbed1b434	-0.40957797
254	0xbd3340b9	-0.043762896
255	0xbd118e76	-0.035536252

lstm.weight_hh_l0 f4 [80, 20]
0	0xbc850733	-0.016238784
1	0x3df56b59	0.119833656
2	0x3b3b8c72	0.0028617647
3	0x3e7bb6e0	0.2458148
4	0xbe623296	-0.2208961
5	0xbefb63b9	-0.4909952
6	0x3ee33831	0.44378808
7	0x3e14c76f	0.14529203
8	0xbde458ba	-0.11149736
9	0xbe6149ce	-0.2200081
10	0xbedbb7db	-0.42913708
11	0x3e71f946	0.23630247
12	0xbeb74fef	-0.35803172
13	0xbe19807a	-0.14990416
14	0x3e86e2bf	0.2634487
15	0x3e2477c9	0.1606132
16	0x3e3cd557	0.18440758
17	0x3df97bbd	0.12181804
18	0x3e46fb50	0.19431806
19	0xbe9d24fc	-0.3069228
20	0x3c9b8fea	0.018989522
21	0x3e3436c5	0.17599018
22	0xbcbcd0db	-0.023048809
23	0x3e80d60e	0.2516331
24	0xbec82be3	-0.39095983
25	0xbf102a1d	-0.5631426
26	0x3eddc93c	0.43317592
27	0xbd4ad041	-0.049515013
28	0xbc268562	-0.010163637
29	0xbe8baab7	-0.27278683
30	0xbed962f5	-0.4245831
31	0xbd09bb53	-0.033625912
32	0xbecb1fe3	-0.39672765
33	0xbe5f0875	-0.2178057
34	0xbe329620	-0.1744008
35	0xbe02f5ec	-0.12789124
36	0xbe6c6805	-0.23086555
37	0x3e7d8091	0.24756075
38	0x3e2c8a69	0.16849674
39	0xbe968133	-0.29395446
40	0x3ec17751	0.37786344
41	0x3dcc34ce	0.09971009
42	0x3e4ff814	0.20309478
43	0xbe993afc	-0.29927814
44	0x3e955cc2	0.2917233
45	0xbe78ebf9	-0.24308766
46	0x3d673e92	0.056456156
47	0xbd198798	-0.037482828
48	0x3ec78c8e	0.38974422
49	0x3f02d147	0.5110058
50	0x3eacc3d6	0.3374316
51	0xbe4b55b1	-0.19856907
52	0xbe35f279	-0.17768277
53	0x3e3783b9	0.17921342
54	0x3e411e7a	0.18859282
55	0x3e3e2439	0.18568505
56	0x3e190d3f	0.14946459
57	0xbefd3395	-0.49453416
58	0xbedba5c2	-0.428999
59	0x3c83951c	0.016062312
60	0xbe908de2	-0.28233248
61	0x3dc46858	0.095902145
62	0x3db22676	0.08698742
63	0xbe035412	-0.12825039
64	0x3dff608d	0.124695875
65	0xbd7b8896	-0.061409555
66	0x3caeb7de	0.02132791
67	0xbed3f15a	-0.41395074
68	0x3ec01fdc	0.37524307
69	0x3ec56851	0.3855615
70	0x3d4acfb5	0.04951449
71	0xbe989ee5	-0.29808727
72	0x3e58b0b7	0.21161161
73	0x3df0e6b1	0.11762751
74	0xbe7af172	-0.24506167
75	0x3d04ff63	0.03247012
76	0x3dc85ec0	0.09783697
77	0xbdfec3fd	-0.124397255
78	0xbc88d20b	-0.016701719
79	0x3eaf7096	0.34265584
80	0xbd2871f4	-0.0411243
81	0x3e456586	0.1927701
82	0x3e5d9842	0.21640113
83	0xbedd7191	-0.43250707
84	0x3f224a50	0.6339464
85	0xbe654862	-0.22390893
86	0x3e99efee	0.30065864
87	0xbe56192d	-0.20908041
88	0x3e66b3d1	0.22529532
89	0x3e30ce6a	0.1726624
90	0x3d2e400b	0.042541545
91	0xbea85e41	-0.3288441
92	0xbccf7f17	-0.025329156
93	0x3ede2bcb	0.43392786
94	0x3ec04454	0.3755213
95	0x3e940273	0.2890812
96	0x3d905a54	0.07048479
97	0xbe29f3b1	-0.16596867
98	0xbe4ca94a	-0.19986454
99	0xbe89aa84	-0.26887906
100	0x3d164955	0.03669103
101	0x3e6f7ffa	0.23388663
102	0xbdc196db	-0.094526015
103	0xbd006de4	-0.0313548
104	0x3e1f1d2e	0.15538475
105	0x3eedd139	0.46448687
106	0xbdb296cd	-0.08720169
107	0xbe8b296d	-0.27180043
108	0x3e252180	0.1612606
109	0x3e8f414c	0.27979505
110	0xbde7c998	-0.11317748
111	0xbec1b66b	-0.37834486
112	0xbd90c75d	-0.070692755
113	0x3da20b9f	0.07912373
114	0xbea62617	-0.32450935
115	0x3c39ad9d	0.011332897
116	0x3b8cc26a	0.004295637
117	0xbe13b0ed	-0.1442296
118	0xbdc4e14b	-0.09613284
119	0x3e94caf5	0.29061094
120	0xbd4cd847	-0.050010946
121	0x3d778231	0.060426895
122	0x3d4dd271	0.05024952
123	0xbce3d85e	-0.027813133
124	0xbe851b55	-0.25997415
125	0xbe17d0c4	-0.14825732
126	0xbea5bd16	-0.32370824
127	0x3d4dc139	0.0502331
128	0x3e14a728	0.1451689
129	0xbdd0c238	-0.10193294
130	0xbe682d00	-0.22673416
131	0x3e869f0a	0.26293212
132	0xbdbc0015	-0.09179703
133	0xbde2b728	-0.110700905
134	0xbe8863c4	-0.26638615
135	0xbe0da6b8	-0.1383313
136	0x3d809310	0.0627805
137	0x3ccba928	0.024860933
138	0x3e957872	0.29193455
139	0xbef7ed30	-0.48423147
140	0x3d51f962	0.05126322
141	0xbe85f596	-0.2616393
142	0xbe3c5a1b	-0.18393748
143	0x3eefad9e	0.46812147
144	0xbddb9ee8	-0.10723668
145	0x3d8ef63d	0.0698056
146	0x3e8bd94d	0.27314225
147	0x3e89c2bb	0.2690638
148	0xbe50e0e8	-0.20398295
149	0xbe4a98c4	-0.19784838
150	0xbe11b1b1	-0.1422794
151	0x3daba3d1	0.08380855
152	0xbd46cd11	-0.04853541
153	0x3c7750d7	0.015094957
154	0xbe119e32	-0.14220503
155	0x3c5d82fb	0.013519998
156	0xbd3d050b	-0.046147387
157	0x3e25bf78	0.16186321
158	0x3df6f4b6	0.12058394
159	0xbea0eb38	-0.31429458
160	0x3ce82826	0.028339457
161	0x3d9072b0	0.07053125
162	0x3e715b8c	0.23570079
163	0xbd2e854d	-0.042607594
164	0x3d9698f2	0.07353391
165	0xbdc35551	-0.09537757
166	0x3eeebbc6	0.46627635
167	0xbeea3671	-0.4574466
168	0x3e97a570	0.29618406
169	0xbd04eeab	-0.032454174
170	0xbefe2502	-0.4963761
171	0xbedbe387	-0.42947027
172	0x3e6208cb	0.22073667
173	0x3cddbf22	0.027068678
174	0xbe79e5e3	-0.24404101
175	0x3df36a46	0.118855044
176	0x3e451b0f	0.19248603
177	0xbecb6e48	-0.39732575
178	0xbe1785f5	-0.14797194
179	0xbd2f0ce1	-0.04273689
180	0x3e638707	0.22219478
181	0x3e48044c	0.19532889
182	0x3e602126	0.21887645
183	0xbeb8c78f	-0.3608975
184	0xbc9df1ad	-0.019280279
185	0xbe45cf4a	-0.19317356
186	0xbd0936b0	-0.03349942
187	0xbcb5b3ac	-0.0221804
188	0x3c8bf68c	0.017085336
189	0x3da8fafc	0.082509965
190	0x3edc4797	0.4302337
191	0xbde04742	-0.10951091
192	0xbe86b772	-0.26311833
193	0x3e6cf3f9	0.23139943
194	0x3ddb81bb	0.107181035
195	0xbe8126aa	-0.2522481
196	0x3d8a94de	0.067666754
197	0xbe8ad038	-0.27111983
198	0xbda99ea1	-0.08282209
199	0xbd9f91da	-0.07791491
200	0xbedc5a61	-0.43037704
201	0x3e34aa6a	0.17643133
202	0x3e49ba15	0.19699891
203	0xbe8f89dd	-0.2803487
204	0x3f010169	0.50392777
205	0xbebd1892	-0.36932808
206	0x3e9605fd	0.29301444
207	0x3e6fc2f6	0.23414215
208	0x3e60287b	0.21890442
209	0xbe2516b6	-0.16121945
210	0xbdc3fa60	-0.095692396
211	0xbda7234e	-0.08161031
212	0x3e3e0c29	0.18559326
213	0x3e1d08aa	0.15335336
214	0x3ea5a776	0.32354325
215	0x3ea4d0a7	0.3219044
216	0x3d93ec04	0.07222751
217	0xbed5ad40	-0.41733742
218	0xbed446e8	-0.41460347
219	0xbdaeb52e	-0.08530651
220	0xbef59523	-0.47965345
221	0x3ea693c1	0.32534602
222	0x3f07a668	0.5298829
223	0xbf1f68eb	-0.6226947
224	0x3f28d41f	0.6594867
225	0xbf1e4304	-0.6182101
226	0x3f141d84	0.5785754
227	0xbe3bd180	-0.18341637
228	0x3f36d888	0.7142415
229	0x3e89737b	0.26845917
230	0xbedca853	-0.4309717
231	0xbed51501	-0.41617587
232	0xbe25cd95	-0.16191705
233	0x3ed2b482	0.41153342
234	0x3eb6833f	0.35647008
235	0x3f54034e	0.8281754
236	0x3f066973	0.5250465
237	0xbf26854e	-0.65047157
238	0xbeddbf03	-0.43309793
239	0xbe36b6d4	-0.17843181
240	0x3de1d893	0.110276364
241	0xbed27087	-0.41101477
242	0xbe23b34b	-0.15986364
243	0x3e69bce0	0.22825956
244	0xbdc1d8c2	-0.094651714
245	0x3ed1a1d4	0.40943778
246	0x3dc493a5	0.095984735
247	0xbe2a4e34	-0.16631395
248	0xbeb6efa2	-0.357297
249	0x3d67d679	0.05660102
250	0xbf0efdad	-0.5585583
251	0x3d1846a8	0.037176758
252	0xbb80d9df	-0.0039322223
253	0xbec07e79	-0.3759649
254	0xbe4c3fa9	-0.1994616
255	0xbe06c504	-0.13161093

lstm.bias_ih_l0 f4 [80]
0	0x3e2c5c35	0.16832049
1	0xbb44ce16	-0.0030030063
2	0x3ec70821	0.3887339
3	0xbe36a12e	-0.17834923
4	0x3f02750b	0.50959843
5	0xbd7c7eeb	-0.061644476
6	0xbe2c8534	-0.16847688
7	0xbe6dffdf	-0.23242138
8	0x3eafb068	0.34314275
9	0x3ecb4e24	0.39708054
10	0x3d34140a	0.043964423
11	0x3f68089a	0.90638125
12	0xbec1e3f7	-0.37869236
13	0x3dc0c8e8	0.0941332
14	0xbdd0229e	-0.10162853
15	0x3e52b5e8	0.20577204
16	0x3ecf1eb1	0.40453103
17	0x3e914949	0.28376225
18	0xbde64d89	-0.112452574
19	0x3e9782cd	0.2959198
20	0xbd9847d5	-0.07435576
21	0xbce85e46	-0.028365266
22	0x3e08ac67	0.13347016
23	0x3ddc6422	0.10761286
24	0x3ec06c59	0.37582663
25	0x3d90262c	0.07038531
26	0xbdadaa6f	-0.08479773
27	0x3e08f5b2	0.13374975
28	0x3de750f1	0.11294735
29	0x3d84269f	0.06452679
30	0x3f0125eb	0.50448483
31	0x3f2e181e	0.6800555
32	0xbe869cb0	-0.26291418
33	0x3ed06bfb	0.40707383
34	0x3e8813e5	0.26577678
35	0x3f0249dd	0.50893956
36	0x3ea1940e	0.3155827
37	0x3df17bd0	0.117911935
38	0x3d84a01a	0.064758494
39	0x3de9233b	0.11383673
40	0x3d87b60c	0.066265196
41	0x3d49158a	0.049092807
42	0x3e000f92	0.1250594
43	0xbe24368b	-0.16036431
44	0x3eceb7f1	0.4037471
45	0x3ca0d2af	0.019631712
46	0x3e0fa429	0.14027466
47	0xbe502d38	-0.2032975
48	0x3ee4e6b8	0.44707274
49	0x3eb432b5	0.35194936
50	0x3e0df3df	0.1386256
51	0xbf00c7b4	-0.5030472
52	0x3ebbd63f	0.36686894
53	0x3ecf8e18	0.40538096
54	0x3d35f435	0.044422347
55	0x3f2136de	0.62974346
56	0x3f0c5dd8	0.54830694
57	0xbf2ea434	-0.68219304
58	0xbe819a70	-0.2531314
59	0x3e891d4c	0.26780164
60	0xbdbd1714	-0.092329174
61	0x3cf8fa5b	0.030392816
62	0xbd42b58b	-0.047536414
63	0x3e1666c4	0.1468764
64	0x3f047966	0.5174774
65	0x3eae3b98	0.3402984
66	0x3d2f5bcd	0.042812157
67	0x3e06a38b	0.13148324
68	0x3e63aefc	0.2223472
69	0xbd8a4a20	-0.067524195
70	0x3eff70e9	0.4989083
71	0x3e6593de	0.22419688
72	0x3e5f5462	0.21809533
73	0x3d6ec4d2	0.05829317
74	0x3ec26727	0.37969324
75	0x3e859c1a	0.2609566
76	0x3eaab4df	0.3334112
77	0x3ea9686a	0.33087474
78	0xbc493e3a	-0.012282902
79	0x3e5280cb	0.20556943

lstm.bias_hh_l0 f4 [80]
0	0x3caf7b12	0.02142099
1	0xbebd17d7	-0.3693225
2	0x3e4a611a	0.19763604
3	0x3db53769	0.08848459
4	0x3eac5c09	0.33663967
5	0xbe323be4	-0.17405659
6	0xbe39f4ec	-0.18159837
7	0xbdafa2a4	-0.08575943
8	0x3e03b288	0.12861073
9	0x3ed5f6d3	0.41789874
10	0x3eb704f3	0.35745963
11	0x3f359691	0.7093287
12	0xbdee22a3	-0.116277
13	0x3c04b8bf	0.0081006875
14	0xbe123d64	-0.14281231
15	0x3f12a8d8	0.57288885
16	0x3eb26701	0.3484421
17	0x3e904c94	0.28183424
18	0xbc21e4bd	-0.009881196
19	0xbd2ac4a8	-0.041691452
20	0x3e5b2cfe	0.21403882
21	0x3d76b66d	0.06023257
22	0x3e1c6742	0.15273765
23	0x3e704a5b	0.23465864
24	0x3efdda8e	0.49580806
25	0x3da41908	0.08012587
26	0x3e033abf	0.12815379
27	0xbd9017c8	-0.07035786
28	0x3e947ade	0.2899999
29	0x3d804baa	0.06264432
30	0x3e2a26c1	0.16616346
31	0x3f3a0985	0.72670776
32	0x3d26c1f5	0.040712316
33	0x3e7fc1e6	0.2497631
34	0x3e359c48	0.17735398
35	0x3e9a8561	0.30179885
36	0x3ec5fc00	0.38668823
37	0x3eb48e6e	0.35264915
38	0x3e818d87	0.2530329
39	0x3e7d4266	0.2473236
40	0xbe8580e6	-0.26074904
41	0x3df1a2e3	0.11798646
42	0x3dd04b8a	0.10170658
43	0x3d96f88c	0.07371625
44	0x3ec8ba8f	0.39204833
45	0x3e9e6b58	0.30941272
46	0x3d8c6ef4	0.068571
47	0xbaf58800	-0.0018732548
48	0x3ee1241c	0.43972862
49	0x3e248304	0.16065603
50	0x3d664dd7	0.056226578
51	0xbf1b1930	-0.6058531
52	0xbbeb073d	-0.0071724937
53	0x3ee3647e	0.44412607
54	0xbd85e660	-0.06538081
55	0x3f2f92b1	0.6858321
56	0x3f1ffbad	0.624934
57	0xbf3629ac	-0.71157336
58	0xbe8fdbd9	-0.28097418
59	0x3db6c26d	0.089238025
60	0xbdfe41f4	-0.12414923
61	0x3e8d6e1a	0.27623063
62	0xbdac875a	-0.08424254
63	0x3dfec5b8	0.124400556
64	0x3effb47a	0.4994238
65	0x3e7cbe50	0.24681973
66	0xbddda969	-0.10823328
67	0xbc2f8d00	-0.010714769
68	0x3ebfecd3	0.3748537
69	0xbe0f1924	-0.13974434
70	0x3eff8d7e	0.49912637
71	0x3ebd2e2d	0.36949292
72	0x3f0ca039	0.5493198
73	0x3c862ff6	0.016380291
74	0x3f0fe180	0.5620346
75	0x3ebc543e	0.36783022
76	0xbd969728	-0.073530495
77	0xbcfbfcfd	-0.030760283
78	0x3d9a4c08	0.07534033
79	0xbe075f84	-0.1322003

lstm.weight_ih_l1 f4 [80, 20]
0	0xbe096e84	-0.13421065
1	0xbd475f0b	-0.048674624
2	0xbe8c56af	-0.27409884
3	0x3d0c1a40	0.03420472
4	0xbde88450	-0.113533616
5	0xbe5d8cf7	-0.21635805
6	0x3eb19007	0.34680197
7	0x3db0ba34	0.086292654
8	0xbe249b0d	-0.16074772
9	0xbf07e380	-0.5308151
10	0xbf197414	-0.59942746
11	0x3db5aba1	0.08870626
12	0xbe2deb9e	-0.16984412
13	0xbe183d6a	-0.14867178
14	0xbe13c969	-0.144323
15	0xbe341f01	-0.17589952
16	0x3d323345	0.043505926
17	0x3ea68108	0.32520318
18	0x3e3d7370	0.18501067
19	0x3df7cec2	0.12099983
20	0x3de940b5	0.11389295
21	0xbe5ea1cc	-0.21741408
22	0x3f154a5f	0.58316606
23	0xbe7922f7	-0.24329744
24	0x3e9ae43f	0.30252263
25	0x3e648789	0.22317328
26	0x3d8bb267	0.06821137
27	0x3d9552f5	0.072912134
28	0xbd01d1de	-0.031694286
29	0x3dae7689	0.085187025
30	0x3b78178f	0.003785584
31	0xbe26d49b	-0.1629204
32	0x3de51b00	0.111867905
33	0xbd4361fe	-0.047700875
34	0xbdbfe1c0	-0.0936923
35	0x3efec937	0.4976289
36	0x3e784400	0.2424469
37	0xbebbe870	-0.36700773
38	0x3dc90103	0.09814646
39	0xbe8894fb	-0.26676163
40	0x3d3bcbf7	0.045848813
41	0x3de40bfe	0.111351
42	0x3e3c2664	0.1837402
43	0xbdbceae4	-0.09224489
44	0xbd853ed2	-0.06506123
45	0xbda6b666	-0.081402585
46	0x3c44addd	0.012004343
47	0xbc14ed7b	-0.009089823
48	0x3e886ce6	0.26645583
49	0x3edbec17	0.4295356
50	0x3ec142df	0.3774633
51	0x3cc82e91	0.024436267
52	0xbb1a8238	-0.0023576152
53	0x3e337f92	0.17529133
54	0x3df320cf	0.11871492
55	0x3dd9da87	0.10637384
56	0x3da7772d	0.08177028
57	0xbe499340	-0.19685078
58	0xbd935c65	-0.07195357
59	0x3cc8bfd0	0.024505526
60	0xbdc4525c	-0.09586021
61	0x3d2ef7cd	0.04271679
62	0x3ed3cf0f	0.4136891
63	0xbf02a53e	-0.5103339
64	0x3f17803f	0.59180063
65	0x3dcf9ae6	0.101369664
66	0xbdd88fa7	-0.105742745
67	0x3d2a43a9	0.041568432
68	0x3e7aeb3c	0.24503797
69	0x3c36639a	0.011132145
70	0xbe4511a2	-0.19245008
71	0xbed60fdc	-0.41808975
72	0xbd9104a6	-0.07080965
73	0x3e7c5086	0.24640092
74	0x3e075b20	0.13218355
75	0x3f0f4570	0.5596533
76	0x3de17193	0.11007991
77	0xbe5d40cb	-0.21606748
78	0xbd732835	-0.059364516
79	0x3dd0edc1	0.10201598
80	0xbe4d0491	-0.20021273
81	0xbe813c6e	-0.25241417
82	0x3d998077	0.07495206
83	0xbe272d50	-0.16325879
84	0x3eb97178	0.36219382
85	0xbdcc9b3d	-0.09990547
86	0xbe137b63	-0.14402537
87	0x3da7834e	0.08179341
88	0xbe82fe22	-0.25584513
89	0x3e42df3c	0.1903047
90	0xbd836972	-0.064165965
91	0xbdeef0b7	-0.116670065
92	0xbe218722	-0.15774205
93	0x3e94a9bd	0.2903575
94	0xbd4eca02	-0.05048562
95	0x3f181a44	0.5941508
96	0x3c06c93e	0.008226691
97	0xbe9d019c	-0.3066529
98	0xbdcc7fa1	-0.09985281
99	0xbcc0bba2	-0.02352697
100	0x3da291bf	0.07937955
101	0xbdfbbebd	-0.1229224
102	0xbed748e5	-0.42047802
103	0x3e8afe8d	0.27147332
104	0xbf10b92b	-0.56532544
105	0xbea6bacb	-0.32564387
106	0x3e0776c0	0.13228893
107	0xbde3688d	-0.11103926
108	0xbd96cce0	-0.073632956
109	0xbeb649e5	-0.35603252
110	0xbec333df	-0.38125512
111	0x3eab7d2f	0.33493945
112	0xbe534085	-0.20630081
113	0x3d3c0054	0.04589875
114	0xbdce515a	-0.1007411
115	0xbea3a159	-0.31959036
116	0xbdcfb6c8	-0.10142285
117	0x3eb871ac	0.36024225
118	0x3c8c8981	0.01715541
119	0xbebc1dac	-0.36741388
120	0xbeafe5a1	-0.3435488
121	0xbe2874da	-0.16450825
122	0x3ea4ddc4	0.32200444
123	0xbdc961fc	-0.09833142
124	0x3ec6f115	0.38855806
125	0x3d2dd708	0.042441398
126	0x3ecc6933	0.3992401
127	0x3de20f9d	0.11038134
128	0x3dcf700e	0.101287946
129	0x3e83fbe6	0.2577812
130	0xbe014dfe	-0.12627408
131	0xbef67541	-0.48136333
132	0xbd92e5e1	-0.07172752
133	0x3e494bc6	0.19657812
134	0xbe2e5dc6	-0.17027959
135	0x3eab28d6	0.33429593
136	0x3e878331	0.2646728
137	0xbe86ea21	-0.263505
138	0xbba279f6	-0.0049583865
139	0xbe5b74dc	-0.21431297
140	0xbdb5bd29	-0.0887397
141	0xbe435cab	-0.19078319
142	0xbe86fe05	-0.26365677
143	0x3e88c865	0.2671539
144	0xbe8971f7	-0.2684476
145	0x3db495ed	0.088176586
146	0x3d9320e1	0.071840055
147	0xbe0ea9ff	-0.13932036
148	0x3e71d81c	0.23617595
149	0xbdab21e6	-0.08356075
150	0xbe87668b	-0.26445422
151	0xbc4fc26e	-0.012680633
152	0x3ef0fcff	0.4706802
153	0xbf021dd9	-0.50826794
154	0xbea6140c	-0.3243717
155	0xbeaf00ab	-0.34180197
156	0x3e56e084	0.20984083
157	0x3e13a14e	0.14417002
158	0x3c20c70f	0.009813084
159	0x3e64267b	0.22280304
160	0xbde7d165	-0.11319236
161	0x3e56ae15	0.20964845
162	0x3e3a90d8	0.18219316
163	0x3e9d85ae	0.30766052
164	0x3ed55500	0.41666412
165	0xbed175b0	-0.409101
166	0x3d7bdd9b	0.061490636
167	0x3dc8ea3f	0.09810304
168	0xbe83c237	-0.25734112
169	0xbe27018d	-0.16309185
170	0xbe5ef8ad	-0.2177455
171	0x3df14bef	0.11782061
172	0xbeba2262	-0.36354357
173	0x3e74c17d	0.23901935
174	0x3eb4cbf8	0.35311866
175	0x3e3c9b88	0.18418705
176	0x3e826e82	0.25474936
177	0xbeede904	-0.4646684
178	0xbdcfa9b1	-0.10139788
179	0xbe4900ab	-0.19629161
180	0x3dee100f	0.11624157
181	0x3dce7d8f	0.10082542
182	0x3dceafbc	0.100921124
183	0xbc19c6a2	-0.009385737
184	0x3d01002a	0.031494297
185	0xbf1e0b84	-0.6173632
186	0x3e47c375	0.19508155
187	0x3ddac86d	0.106827594
188	0xbe275105	-0.163395
189	0xbe428d7e	-0.18999287
190	0x3af8cd05	0.0018981999
191	0x3e863af5	0.26216856
192	0xbe926a88	-0.28596902
193	0x3e9613a5	0.29311863
194	0x3ebebb04	0.37252057
195	0xbdb6e022	-0.08929469
196	0xbe306df4	-0.17229444
197	0x3de43f69	0.11144907
198	0xbe65d12f	-0.22443078
199	0xbe0ef92e	-0.13962242
200	0xbd9f338c	-0.07773504
201	0xbe25642d	-0.16151495
202	0xbe43e656	-0.19130835
203	0x3cd08e03	0.025458341
204	0xbdaf55b1	-0.08561266
205	0xbdfcad3a	-0.12337728
206	0x3d815c6c	0.06316456
207	0x3d51480e	0.051094107
208	0xbc1da04f	-0.00962074
209	0x3cbfa5fd	0.023394579
210	0x3e88b5b5	0.2670113
211	0x3e13f8cc	0.14450377
212	0xbe898f49	-0.2686713
213	0x3dcf5554	0.10123697
214	0xbe338078	-0.17529476
215	0x3e927f4c	0.28612745
216	0xbd7796ea	-0.060446657
217	0x3dfeac44	0.12435201
218	0x3d8b6a7e	0.06807421
219	0x3d14958e	0.03627544
220	0xbdc4d603	-0.09611132
221	0xbe59e49e	-0.21278617
222	0xbdf00aaa	-0.11720784
223	0xbe8f1550	-0.27945948
224	0x3d256222	0.04037679
225	0x3e1a7971	0.15085389
226	0x3e7a5d54	0.24449664
227	0x3e956dbf	0.29185292
228	0xbe0a2f66	-0.13494644
229	0xbeb8157a	-0.35953885
230	0xbf2c046d	-0.67194253
231	0x3e67158a	0.2256681
232	0xbdb3d665	-0.08781127
233	0xbd67007b	-0.056396943
234	0x3d8bea2a	0.068317726
235	0x3e31917a	0.17340651
236	0xbcf5a84a	-0.029987473
237	0x3e60e887	0.21963702
238	0x3eac6cd9	0.33676794
239	0xbe0370cb	-0.12835996
240	0xbdc74c02	-0.09731294
241	0x3df36ad8	0.11885613
242	0x3e8b6bf8	0.2723081
243	0xbe2300ac	-0.15918225
244	0x3ece9ae4	0.40352547
245	0x3e669555	0.22517903
246	0x3d7b3c84	0.06133701
247	0x3df97501	0.1218052
248	0xbc4898bc	-0.012243446
249	0x3e12a5be	0.14321038
250	0x3e1c6afb	0.15275185
251	0xbe448de8	-0.19194758
252	0x3de05b1d	0.109548785
253	0x3e0837ed	0.13302584
254	0x3e7d4af3	0.24735622
255	0x3ecde740	0.40215492

lstm.weight_hh_l1 f4 [80, 20]
0	0x3e554e30	0.20830607
1	0xbd795f7b	-0.060882073
2	0xbddc763f	-0.10764741
3	0xbe575a5a	-0.2103056
4	0xbefb7a93	-0.49116954
5	0xbf0e8a0e	-0.55679405
6	0xbdeddb18	-0.116140544
7	0x3e045b8a	0.12925544
8	0x3d91099b	0.0708191
9	0x3e034320	0.12818575
10	0x3e925d48	0.28586793
11	0x3e5790c7	0.21051322
12	0xbcc52c10	-0.024068862
13	0xbe85f9fe	-0.2616729
14	0x3e8bd7f7	0.27313206
15	0x3e43265e	0.19057605
16	0x3d03b4cc	0.032154843
17	0xbe1d109c	-0.15338367
18	0xbe3dedc5	-0.18547733
19	0xbe2a6651	-0.16640593
20	0x3e0cf8e6	0.13766822
21	0x3dc28748	0.09498459
22	0xbe0a82cc	-0.13526458
23	0xbd920e6c	-0.07131657
24	0xba863919	-0.0010240405
25	0xbe611ee7	-0.21984445
26	0x3eacd2d8	0.3375461
27	0xbe0ae8f7	-0.13565432
28	0x3e27e01d	0.16394086
29	0x3c2ed501	0.010670901
30	0xbd9a9944	-0.07548764
31	0x3e8f3222	0.27967936
32	0x3e338a5f	0.17533253
33	0xbd59fabd	-0.05321764
34	0x3e1483cb	0.145034
35	0x3e53a0d0	0.20666814
36	0xbd0d9998	-0.034570307
37	0xbe9860d3	-0.2976137
38	0x3e0b0196	0.13574824
39	0xbe5873fb	-0.21137993
40	0xbdffbc21	-0.124870546
41	0xbdf10345	-0.11768202
42	0x3e28e529	0.16493668
43	0x3bc1f2e8	0.0059188493
44	0xbe747611	-0.23873164
45	0xbde47f51	-0.11157096
46	0x3df9124e	0.121616945
47	0x3db2c93b	0.08729788
48	0x3db5c720	0.08875871
49	0x3a3d4018	0.00072193285
50	0xbd2aadc5	-0.041669626
51	0x3e729b12	0.23691967
52	0x3eb6f30c	0.35732305
53	0xbe1c491e	-0.15262267
54	0x3d371f34	0.044707492
55	0xbd9f4952	-0.077776566
56	0xbee0b121	-0.4388514
57	0xbeb2bdb3	-0.34910354
58	0x3ecdaa7d	0.40169135
59	0xbd0087c4	-0.031379476
60	0x3d55adc3	0.052167665
61	0x3ba3d907	0.005000237
62	0x3e0368e1	0.12832977
63	0xbd3dd55b	-0.04634605
64	0xbe151897	-0.14560162
65	0xbe374244	-0.17896372
66	0xbe253a25	-0.16135462
67	0xbd5504fe	-0.052006714
68	0x3e516b3b	0.20451061
69	0xbe094d59	-0.13408412
70	0x3d4206d7	0.047369804
71	0xbdbd5048	-0.09243828
72	0xbe609eba	-0.2193555
73	0xbd1a6e81	-0.03770304
74	0x3d38890d	0.045052577
75	0x3d222c33	0.039592933
76	0xbd0367cd	-0.032081414
77	0xbba45ff8	-0.005016323
78	0x3ddacca3	0.106835626
79	0x3df597b6	0.11991827
80	0x3dc2ec64	0.09517744
81	0xbe50b784	-0.20382506
82	0x3d3357bf	0.043784853
83	0x3cd97ec5	0.026549706
84	0xbdbb4497	-0.09143942
85	0xbed2fb99	-0.4120758
86	0x3e28abd4	0.16471797
87	0x3e120bcf	0.14262317
88	0x3e4e4716	0.20144305
89	0xbdac66ff	-0.084180824
90	0xbb212359	-0.002458772
91	0x3e36ea50	0.1786282
92	0x3e212505	0.15736778
93	0xbe3e61df	-0.18592022
94	0x3e73b532	0.2379959
95	0x3d5d9c4d	0.05410414
96	0xbe9c9ce6	-0.30588454
97	0xbd0b10a6	-0.033951424
98	0xbe18b9ac	-0.14914578
99	0xbcb405f6	-0.021975499
100	0x3e03840e	0.12843344
101	0xbef7000a	-0.48242217
102	0xbee5d243	-0.4488698
103	0xbe719f84	-0.23596007
104	0xbecc1c6f	-0.39865443
105	0x3dbe6225	0.09296063
106	0xbe1a0c8b	-0.15043847
107	0x3e6d2077	0.23156916
108	0xbd83d5bd	-0.06437252
109	0x3ca88e81	0.020575764
110	0x3da5ec6d	0.08101735
111	0xbca152e6	-0.01969285
112	0x3e230e83	0.15923505
113	0xbee91a28	-0.45527768
114	0x3e82004e	0.25390857
115	0xbd2341ea	-0.039857782
116	0x3e67ae25	0.22625025
117	0x3e9146c4	0.28374302
118	0x3eb8caf2	0.36092335
119	0xbeb1d95d	-0.34736148
120	0x3e00a333	0.12562256
121	0xbde8ca7f	-0.11366748
122	0x3c9cacf3	0.019125437
123	0xbdbb3345	-0.09140638
124	0xbe2181e9	-0.15772213
125	0x3d29ebfe	0.041484825
126	0xbdc1f487	-0.09470468
127	0xbd239106	-0.039933227
128	0x3e03745c	0.12837356
129	0x3e2f14a6	0.1709772
130	0x3e38c757	0.18044792
131	0xbdb0f170	-0.086398005
132	0x3f116f7b	0.5681073
133	0x3e67d351	0.22639205
134	0x3cec7afe	0.028867241
135	0x3cff56ea	0.031169374
136	0xbc5f7ca6	-0.013640558
137	0xbe3f658d	-0.18691082
138	0x3dabff3e	0.08398293
139	0xbe3f0f2e	-0.18658134
140	0x3dc97d6a	0.09838374
141	0xbe057550	-0.13033032
142	0x3dc0fe70	0.0942353
143	0x3e972a0c	0.29524267
144	0xbc8560a0	-0.016281426
145	0x3d2be390	0.041965067
146	0x3e87bf88	0.26513314
147	0xbd93f96e	-0.07225309
148	0x3e5fa024	0.21838433
149	0x3e2e8a93	0.1704505
150	0x3dc4949a	0.09598656
151	0xbd7cf5fd	-0.06175803
152	0x3ec99446	0.39370936
153	0xbdc4f169	-0.09616358
154	0x3e74336a	0.23847738
155	0x3c57d725	0.013173853
156	0xbe0ac7b6	-0.13552746
157	0xbcb29175	-0.021797875
158	0x3ea2a9a0	0.3177004
159	0x3d5c21a1	0.05374301
160	0x3de03baf	0.10948884
161	0xbda6a531	-0.081369765
162	0x3d3945d7	0.04523262
163	0x3c883f0d	0.016631627
164	0x3dea776a	0.11448558
165	0xbdea080e	-0.114273176
166	0x3db64224	0.08899334
167	0x3e737517	0.23775135
168	0xbe17d367	-0.14826737
169	0x3d770b4e	0.060313515
170	0x3eb3157c	0.3497733
171	0x3e189c65	0.1490341
172	0xbe7c44f2	-0.24635676
173	0xbe4b493f	-0.1985216
174	0x3e4ed84c	0.20199698
175	0xbd862832	-0.065506354
176	0xbe8362eb	-0.25661406
177	0xbe804c60	-0.2505827
178	0x3dd50758	0.10401791
179	0xbbc08897	-0.005875658
180	0x3e582298	0.21106946
181	0xbe139a1b	-0.14414255
182	0xbe913265	-0.2835876
183	0x3dc51b17	0.096243076
184	0xbeb7c211	-0.35890248
185	0xbe233b69	-0.15940632
186	0xbe0e725e	-0.13910815
187	0xbd2396d4	-0.039938763
188	0xbe1ba24d	-0.15198632
189	0x3e24dc08	0.1609956
190	0x3ded4b64	0.11586645
191	0xbd00548c	-0.03133063
192	0xbd4ce491	-0.050022665
193	0xbc80d8e8	-0.015728429
194	0x3db56af1	0.08858288
195	0xbc1725e4	-0.009225342
196	0xbc6f11ca	-0.014591644
197	0xbc5e6755	-0.013574441
198	0xbce16ba7	-0.027517153
199	0x3e191c57	0.14952217
200	0x3e27d368	0.16389239
201	0xbdca41d4	-0.09875837
202	0x3ce11b22	0.027478758
203	0xbdcbcea2	-0.099515215
204	0xbe3cc760	-0.1843543
205	0xbe24e78e	-0.16103956
206	0xbe6df9b7	-0.2323979
207	0x3b3b98f6	0.0028625107
208	0xbea68504	-0.32523358
209	0xbd12fc6a	-0.035885252
210	0xbd905387	-0.070471816
211	0xbdac521e	-0.084141
212	0x3c5adc35	0.0133581655
213	0xbe02069c	-0.12697834
214	0x3cc7a609	0.024371164
215	0x3dba1822	0.09086634
216	0xbddf594d	-0.10905705
217	0x3e3055bd	0.17220207
218	0x3c1482a7	0.009064353
219	0x3ddaa0fd	0.10675237
220	0xbd3c7f1c	-0.04601966
221	0xbd5c2de1	-0.05375469
222	0xbe02d28e	-0.12775633
223	0xbd83952c	-0.06424937
224	0x3d808fb3	0.062774085
225	0xbe3a3ce6	-0.18187293
226	0x3e297872	0.16549852
227	0x3cfb230e	0.030656364
228	0x3ec631ba	0.38709813
229	0xbe2adf55	-0.16686757
230	0xbd295f1f	-0.04135048
231	0x3e60b6e5	0.21944769
232	0x3eb85434	0.36001742
233	0x3e11ce95	0.14238961
234	0xbe708733	-0.23489074
235	0x3d674c22	0.05646909
236	0xbe94946c	-0.29019487
237	0xbdcdc272	-0.10046853
238	0x3d97f616	0.07419984
239	0x3e28d2fb	0.16486733
240	0xbe205a7e	-0.1565952
241	0xbe91e3a4	-0.2849399
242	0xbe218a90	-0.15775514
243	0x3ddb019e	0.10693668
244	0x3e1181e4	0.14209706
245	0x3e822d50	0.25425196
246	0xbd1fadc5	-0.03898408
247	0xbe1d8fdf	-0.15386914
248	0x3e878ed2	0.2647615
249	0x3dbadac2	0.09123756
250	0xbe03f6cb	-0.12887113
251	0xbe4ade47	-0.19811355
252	0x3d78e939	0.060769293
253	0x3dc318fe	0.09526251
254	0xbdd06c12	-0.10176863
255	0x3b64456c	0.0034831418

lstm.bias_ih_l1 f4 [80]
0	0xbe65c1c9	-0.22437204
1	0x3e108f9d	0.14117284
2	0x3e85d62b	0.2613996
3	0x3dc83141	0.097750194
4	0x3dd44df1	0.10366429
5	0x3dd75bf6	0.10515587
6	0xbcac6ddb	-0.021048477
7	0x3dbd3bd8	0.0923993
8	0x3dfabde7	0.12243252
9	0xbe7a00f4	-0.24414426
10	0xbe752b68	-0.2394234
11	0x3df351b2	0.118808165
12	0x3df974b5	0.12180463
13	0x3e5a1e61	0.21300651
14	0xbe82652f	-0.25467822
15	0x3e00f25d	0.12592454
16	0x3e352637	0.17690359
17	0x3da0131d	0.078161456
18	0xbe485173	-0.1956232
19	0x3d4d791b	0.050164323
20	0x3a9b0e35	0.0011829796
21	0x3df64e4d	0.120266534
22	0x3e0bc21b	0.13648264
23	0x3dc7947c	0.09745118
24	0x3d8755ad	0.06608138
25	0x3db52af0	0.0884608
26	0xbd3e17b2	-0.046409316
27	0xbe89f9e0	-0.26948452
28	0x3e2b44ac	0.16725415
29	0xbe2bb9db	-0.16770117
30	0xbe909342	-0.2823735
31	0x3d3eaeea	0.04655353
32	0x3e41bfc1	0.18920805
33	0x3e99507a	0.2994421
34	0xbe1670e6	-0.14691505
35	0x3e25c0c1	0.16186811
36	0x3d938155	0.072024025
37	0xbe399775	-0.18124183
38	0xbdf9c7c9	-0.12196309
39	0xbe3214f5	-0.17390807
40	0x3e48d538	0.19612586
41	0xbc874719	-0.016513394
42	0xbe3e0e4f	-0.18560146
43	0xbe8827a3	-0.2659274
44	0xbe7f7551	-0.24947096
45	0xbe242997	-0.1603149
46	0x3dc39ed5	0.09551779
47	0xbe07b9f2	-0.13254526
48	0x3e1448d7	0.14480911
49	0x3e57f5c6	0.21089849
50	0x3d3286d1	0.043585602
51	0x3b94de95	0.0045431354
52	0x3e698dee	0.22808048
53	0xbe849fbd	-0.2590312
54	0xbcc69d4c	-0.024244927
55	0x3e4b4b2b	0.19852893
56	0x3d78a045	0.06069972
57	0xbd563810	-0.05229956
58	0x3d0edbda	0.034877636
59	0xbe18e81e	-0.14932296
60	0x3e893c00	0.2680359
61	0x3dbc59d8	0.09196824
62	0x3d9600cb	0.0732437
63	0x3e2cf33d	0.16889663
64	0x3eb62a1f	0.3557901
65	0x3eaac944	0.33356678
66	0xbd2ef480	-0.042713642
67	0x3d8a8449	0.06763513
68	0x3e904edb	0.28185162
69	0xbe0b558f	-0.13606857
70	0xbe099c87	-0.13438617
71	0x3db5837a	0.08862968
72	0x3e0124a1	0.12611629
73	0xbd13d70f	-0.036093768
74	0xbd961e4d	-0.07329998
75	0x3e87c266	0.26515502
76	0x3e8e8a79	0.2784002
77	0xbc2943a1	-0.010331065
78	0x3d656207	0.05600169
79	0xbdc1def4	-0.09466353

lstm.bias_hh_l1 f4 [80]
0	0xbe684339	-0.22681893
1	0x3e918bb1	0.2842689
2	0xbdfa8aa4	-0.12233475
3	0xbdd4c063	-0.10388257
4	0x3e69323a	0.22773066
5	0x3e3aaae8	0.18229258
6	0x3dbc687c	0.09199616
7	0xbd7524cf	-0.059849557
8	0x3d8926c0	0.06696844
9	0xbe044c09	-0.1291963
10	0x3dfa5f1f	0.12225174
11	0x3dd6a210	0.1048013
12	0xbcf70c16	-0.03015713
13	0x3d1d0af8	0.03834054
14	0x3da2c98b	0.079485975
15	0x3dfd9119	0.12381191
16	0xbe18ce9d	-0.14922567
17	0xbe4fef99	-0.20306243
18	0xbde71527	-0.11283331
19	0xbcc452a8	-0.023965195
20	0x3e8a7bc5	0.27047554
21	0x3ea2dec0	0.3181057
22	0x3e013938	0.12619483
23	0x3e3e41ab	0.18579738
24	0xbd238bba	-0.039928176
25	0x3dd7209e	0.10504268
26	0xbe3824d3	-0.17982797
27	0xbd7beefa	-0.061507203
28	0xbd2a0e45	-0.041517515
29	0x3cf2ebaa	0.029653389
30	0xbdb5a076	-0.08868496
31	0xbdbb0e02	-0.09133531
32	0xbda34ef5	-0.07974044
33	0x3e278ec6	0.16363057
34	0xbd356dca	-0.044294156
35	0x3e1d7065	0.15374906
36	0x3e029b2c	0.12754506
37	0xbd3475de	-0.04405772
38	0x3e2c266e	0.16811535
39	0x3de3f20d	0.11130152
40	0x3e21de0e	0.15807363
41	0xbdab5091	-0.08364976
42	0xbe351ba1	-0.17686321
43	0xbe8dfe81	-0.27733234
44	0xbd61e704	-0.055151954
45	0x3bf08a25	0.007340687
46	0x3e551ded	0.20812197
47	0xbdc9c997	-0.09852903
48	0x3d36f96e	0.04467147
49	0xbe1c00ba	-0.15234652
50	0xbd9f64bb	-0.07782885
51	0x399aaf99	0.00029504
52	0xbe06bbbe	-0.13157555
53	0x3e03ad97	0.12859188
54	0xbdcc4998	-0.099749744
55	0x3dd0bfdf	0.101928465
56	0xbd930fde	-0.07180761
57	0xbd707828	-0.05870834
58	0x3ebf6715	0.37383333
59	0xbd808701	-0.0627575
60	0x3eaca352	0.33718354
61	0xbe582a46	-0.21109876
62	0xbe6a3401	-0.228714
63	0xbd923247	-0.07138496
64	0x3e324efc	0.17412943
65	0x3e85c7fa	0.26129133
66	0x3e4ee3fd	0.20204158
67	0x3e54d6de	0.2078509
68	0x3e901276	0.28139085
69	0xbe4e6331	-0.20155026
70	0xbdcb3880	-0.09922886
71	0x3e38e372	0.18055514
72	0x3d834a44	0.064106494
73	0x3e55280c	0.20816058
74	0x3cbfca31	0.023411842
75	0x3c0124c2	0.007882299
76	0xbd7eebac	-0.062236473
77	0xbd65550d	-0.055989314
78	0xbd0858b6	-0.033287726
79	0x3dfc3955	0.12315623

lstm.weight_ih_l2 f4 [80, 20]
0	0xbe450af2	-0.19242457
1	0xbf07ce9a	-0.53049624
2	0xbe9c6c21	-0.30551246
3	0xbea594ff	-0.32340237
4	0xbf1fd494	-0.62433743
5	0xbe966691	-0.29375127
6	0xbe93c198	-0.28858638
7	0x3e8be68f	0.2732434
8	0x3d40d9e7	0.047082808
9	0x3e6f83d0	0.23390126
10	0x3e4b3563	0.19844584
11	0xbdf5c31a	-0.12000103
12	0xbe44d13c	-0.19220442
13	0xbdfb7b2f	-0.12279355
14	0xbe04e1e5	-0.12976797
15	0x3d475601	0.048666004
16	0x3e9357ae	0.28777832
17	0xbe02123d	-0.1270227
18	0x3dc34750	0.09535086
19	0x3e0e3d8d	0.13890667
20	0xbe34a6b9	-0.17641725
21	0x3e47f46c	0.19526833
22	0xbe3a7d0c	-0.18211764
23	0xbe3aa12f	-0.18225549
24	0xbea1645d	-0.31521884
25	0xbe599d77	-0.21251474
26	0xbde740ef	-0.11291682
27	0x3eb532ab	0.3539022
28	0x3e62024f	0.22071193
29	0xbdbec56d	-0.09315
30	0xbe58dbee	-0.21177647
31	0x3ebc9ff4	0.36840785
32	0xbe93008a	-0.2871135
33	0xbe9ee8b3	-0.3103691
34	0x3d515610	0.051107466
35	0x3cac89e2	0.021061841
36	0xbe8ab847	-0.27093717
37	0xbd51aacc	-0.051188275
38	0xbce0060c	-0.027346633
39	0x3cfd83cc	0.030946635
40	0x3e1093a1	0.14118816
41	0x3e723e0a	0.23656479
42	0x3e401844	0.18759257
43	0x3db5561d	0.088543154
44	0xbce12a6d	-0.02748605
45	0xbdddf16a	-0.10837062
46	0x3ef4e8e8	0.47833943
47	0x3e95b713	0.29241237
48	0x3e8aac67	0.27084658
49	0xbea3d4c9	-0.3199828
50	0xbdfb0d0d	-0.122583486
51	0x3cc05623	0.023478573
52	0xbcc7b6ea	-0.024379212
53	0x3c3e6025	0.011619602
54	0xbce1009e	-0.027466115
55	0xbe94a859	-0.2903469
56	0xbe8e27ab	-0.2776464
57	0x3c0bf95d	0.00854334
58	0x3d9f49de	0.07777761
59	0xbe455d86	-0.19273958
60	0x3e20bc66	0.15696868
61	0xbefd6868	-0.49493718
62	0xbf0e6975	-0.55629665
63	0xbea7b76d	-0.3275713
64	0xbee095d4	-0.4386431
65	0x3e24e906	0.16104516
66	0xbdeff177	-0.11715978
67	0x3ea720eb	0.32642302
68	0xbe19da27	-0.15024625
69	0xbd9ef1cb	-0.07760962
70	0xbd56de3c	-0.052458033
71	0x3e43f354	0.19135791
72	0x3c06427d	0.008194563
73	0xbee691b2	-0.45033032
74	0xbdcbb7eb	-0.09947189
75	0x3e9cc93d	0.30622283
76	0x3e8be54e	0.27323383
77	0x3d404aa9	0.0469462
78	0x3e453dd1	0.19261862
79	0x3e85ff3f	0.261713
80	0x3ead482b	0.33844122
81	0xbec98532	-0.39359432
82	0xbe30da9f	-0.17270897
83	0xbea19d6e	-0.31565422
84	0xbed4e24d	-0.41578904
85	0xbe5c7293	-0.21528082
86	0xbea757b3	-0.32684097
87	0x3e94c727	0.2905819
88	0xbccf7c00	-0.025327682
89	0x3eb95f03	0.362053
90	0x3da420a4	0.08014038
91	0xbdd7f05d	-0.105438925
92	0xbe684fae	-0.22686645
93	0xbeaf8a5a	-0.3428524
94	0xbd2197fe	-0.03945159
95	0x3d53c3ff	0.05170059
96	0x3e82b856	0.25531262
97	0x3e9411ad	0.28919736
98	0x3e34d6e0	0.17660093
99	0x3eaebaba	0.34126836
100	0x3dcd0df0	0.10012424
101	0x3e0d7988	0.13815892
102	0x3da5660d	0.08076105
103	0x3dbb9d8a	0.091609076
104	0xbcdcc74d	-0.026950503
105	0xbc296972	-0.0103400815
106	0xbe83749b	-0.256749
107	0xbd5972a2	-0.053087838
108	0xbdb5b4f1	-0.088724025
109	0x3d8df4c1	0.06931449
110	0xbd313528	-0.043263584
111	0x3c8ecb32	0.017430875
112	0x3dfd7b57	0.12377041
113	0xbe41cd5b	-0.18925993
114	0x3e69783c	0.22799772
115	0xbe9d8c8f	-0.307713
116	0xbe1fff91	-0.15624835
117	0x3c946117	0.018112702
118	0xbe83a6ef	-0.25713298
119	0xbe1593cf	-0.14607166
120	0xbe2bf318	-0.16791952
121	0xbca4d15a	-0.020119358
122	0xbb179eeb	-0.0023135494
123	0x3ebb844e	0.36624378
124	0x3e8dee50	0.2772088
125	0xbeadc6b1	-0.33940652
126	0x3efa95eb	0.48942503
127	0x3dc61c3e	0.096733555
128	0xbe2681a3	-0.1626039
129	0xbd4cb9bd	-0.04998182
130	0xbd872376	-0.065985605
131	0x3e1418ee	0.14462635
132	0x3e601871	0.21884324
133	0x3e2c7855	0.16842778
134	0x3d689936	0.05678674
135	0x3da81cfd	0.08208654
136	0xbf031f2d	-0.51219445
137	0xbe89da9b	-0.26924595
138	0xbef4550e	-0.47721142
139	0xbdd0540d	-0.101722814
140	0xbe1d373f	-0.15353106
141	0xbef49b81	-0.4777489
142	0xbd5f61f5	-0.05453678
143	0xbde41480	-0.111367226
144	0xbe6202fd	-0.22071452
145	0x3c876ae9	0.01653047
146	0xbcfba11b	-0.03071647
147	0x3e3c8343	0.18409447
148	0xbda05a31	-0.07829703
149	0xbe315d2e	-0.17320701
150	0xbd56eda8	-0.05247274
151	0xbdbe34bd	-0.09287403
152	0x3d33cfc8	0.043899328
153	0xbee6b9a9	-0.45063522
154	0x3e0c65d5	0.13710721
155	0x3e82c76f	0.2554278
156	0x3e8c4281	0.27394488
157	0xbdafd8de	-0.08586286
158	0x3e1dec12	0.15422085
159	0xbe8ba7dd	-0.27276507
160	0xbe5f0f65	-0.21783216
161	0x3d327aea	0.04357425
162	0xbc96f81d	-0.018428857
163	0xbc08fc93	-0.008361
164	0xbdb66cf2	-0.089074984
165	0x3de72b23	0.112875246
166	0xbdd1a24a	-0.10236032
167	0x3e1e1a7c	0.1543979
168	0xbd0b2376	-0.033969365
169	0x3e8e549f	0.27798936
170	0xbe0cde99	-0.1375679
171	0xbe4550fc	-0.19269174
172	0xbe337896	-0.17526469
173	0xbeae14ff	-0.34000394
174	0xbe80d96b	-0.25165877
175	0x3e4d5b3a	0.20054331
176	0x3c2a1500	0.010380983
177	0x3e31b095	0.17352517
178	0x3e9c76b3	0.3055931
179	0x3d50caa9	0.05097452
180	0x3e525aa4	0.20542389
181	0x3e13aa4f	0.14420436
182	0x3e93767c	0.28801334
183	0xbe20ac5f	-0.15690754
184	0xbd8f0ac9	-0.06984479
185	0xbe2d3744	-0.16915613
186	0xbdd4a615	-0.1038324
187	0xbcef18fd	-0.02918672
188	0xbe39860c	-0.18117541
189	0xbd9c9165	-0.07644919
190	0x3e99af31	0.30016473
191	0xbd09bd4f	-0.033627804
192	0x39a52024	0.000314952
193	0xbc66061e	-0.014039544
194	0x3ea0fd59	0.3144329
195	0xbe9fe1a3	-0.31226835
196	0xbe502bf8	-0.20329273
197	0xbdd62b3d	-0.10457466
198	0xbe510266	-0.20411071
199	0xbe2cbc46	-0.16868696
200	0x3dd47711	0.103742726
201	0xbee4e17d	-0.44703284
202	0xbe0399c2	-0.12851623
203	0xbed81097	-0.42200157
204	0xbeee26a3	-0.46513852
205	0xbdc286ee	-0.09498392
206	0xbedecd00	-0.43515778
207	0x3c68dd8e	0.014212979
208	0xbb9e2066	-0.0048256395
209	0x3eb6bc2b	0.35690436
210	0x3de8fcf3	0.11376371
211	0xbe1b365d	-0.15157457
212	0xbdd039db	-0.10167285
213	0xbdf2339d	-0.11826251
214	0xbef219b8	-0.47285247
215	0x3e7bad6a	0.24577871
216	0x3f07c5f6	0.5303644
217	0x3e897420	0.2684641
218	0x3ecbabe9	0.39779595
219	0x3e205cf8	0.15660465
220	0xbd28c179	-0.041200135
221	0xbea7ced0	-0.32774973
222	0xbdd6765d	-0.10471795
223	0xbdd3a93b	-0.103350125
224	0xbede7a25	-0.43452564
225	0xbe425a41	-0.18979742
226	0xbe6be921	-0.2303815
227	0x3e977dfe	0.29588312
228	0x3eb0686c	0.34454668
229	0x3cdcb736	0.02694283
230	0x3dc45e2c	0.09588274
231	0x3e9495d3	0.29020557
232	0x3dd3bcea	0.10338767
233	0xbf08b76a	-0.5340487
234	0x3e3b7ede	0.18310115
235	0x3e9a9cbd	0.30197707
236	0x3df1bed6	0.11803977
237	0xbc890cfe	-0.016729828
238	0x3e48fda3	0.19628005
239	0x3cc52967	0.024067594
240	0x3d1a79ae	0.0377137
241	0xbd96dba0	-0.07366109
242	0xbe093856	-0.13400397
243	0xbd9699b7	-0.073535375
244	0xbd0f791b	-0.035027605
245	0xbe6d82ec	-0.23194474
246	0xbe3d0e13	-0.184624
247	0x3e9f44d2	0.31107193
248	0x3dd38d74	0.103297144
249	0x3ce43756	0.027858417
250	0xbd0c14ae	-0.03419941
251	0x3ec23e12	0.3793798
252	0x3e33ca6c	0.17557687
253	0xbba3d34a	-0.004999553
254	0x3ed76720	0.42070866
255	0xbd35f6fb	-0.044424992

lstm.weight_hh_l2 f4 [80, 20]
0	0xbd25a6ba	-0.040442206
1	0xbe354e91	-0.17705752
2	0x3e87b3e2	0.26504427
3	0x3cb9d30f	0.022683648
4	0x3dc04aab	0.09389242
5	0xbe328d7c	-0.17436785
6	0x3e96df7b	0.29467377
7	0x3d2ed4fe	0.042683594
8	0x3e758a44	0.23978525
9	0x3e052376	0.13001809
10	0xbd1e8ee7	-0.0387105
11	0x3e41189c	0.18857044
12	0xbece2dc6	-0.40269297
13	0x3e2fdc0a	0.17173782
14	0xbed61ca5	-0.4181873
15	0xbe39c661	-0.18142082
16	0xbe1779fe	-0.1479263
17	0x3eb66a45	0.35627952
18	0x3e8910db	0.26770672
19	0xbeb80d00	-0.35947418
20	0xbe7518ae	-0.23935196
21	0xbd7d9dca	-0.061918058
22	0xbcd1d2b9	-0.025613176
23	0x3ed1f560	0.4100752
24	0xbe0046d4	-0.12527019
25	0xbe3437e9	-0.17599453
26	0x3dde7050	0.10861266
27	0x3e899583	0.2687188
28	0x3e5a98fa	0.21347418
29	0xbe8fec42	-0.28109938
30	0xbd27dc49	-0.040981565
31	0x3eebff07	0.46093008
32	0xbeb4a403	-0.3528138
33	0xbc5b1283	-0.013371113
34	0xbdc5f987	-0.09666734
35	0x3bedfd7c	0.0072628837
36	0xbe48a16b	-0.19592826
37	0x3dea6564	0.1144512
38	0x3ea24f82	0.31701285
39	0xbe7f7940	-0.24948597
40	0xbd7c14cc	-0.06154327
41	0xbd71a443	-0.058994543
42	0xbc1efc98	-0.009703778
43	0x3d60cb3c	0.05488132
44	0xbd057be8	-0.03258887
45	0x3e2dfbd2	0.16990593
46	0xbefd46de	-0.4946813
47	0x3e991939	0.29902056
48	0x3ead7020	0.33874607
49	0xbea32d69	-0.31870583
50	0x3caf20b2	0.021377895
51	0x3ec79fa2	0.38988978
52	0x3deba103	0.1150532
53	0xbe06e3a5	-0.13172777
54	0x3e34795e	0.17624423
55	0x3e01f08d	0.12689419
56	0xbe8030c5	-0.25037208
57	0xbe033a32	-0.12815168
58	0xbd14b8b8	-0.036308974
59	0xbea1ce62	-0.3160277
60	0x3da26788	0.07929903
61	0xbebcf44c	-0.36905134
62	0x3e29e37c	0.16590685
63	0x3e3bbf7e	0.18334767
64	0xbdd0df1a	-0.10198803
65	0xbe0d44a9	-0.13795723
66	0x3ee7ca89	0.4527171
67	0x3e12ad8a	0.14324012
68	0x3ced66d1	0.02897969
69	0x3e53c0a7	0.2067896
70	0xbe49d9da	-0.1971201
71	0xbaa08a36	-0.0012248221
72	0xbe91b4e8	-0.28458333
73	0xbe398445	-0.18116863
74	0xbe05722b	-0.13031833
75	0x3b489fdf	0.0030612869
76	0xbac30118	-0.0014877645
77	0x3e93871d	0.2881402
78	0x3e8c53fe	0.2740783
79	0xbbd142b1	-0.006386124
80	0x3e85ca96	0.26131123
81	0xbd7f7e00	-0.062376022
82	0x3deaf7b9	0.114730306
83	0x3d8bd285	0.06827263
84	0xbe8280c1	-0.25488856
85	0xbe69b866	-0.22824249
86	0x3e4a40de	0.19751307
87	0xbd2659ec	-0.0406131
88	0x3d5ed82a	0.05440537
89	0x3e55d65e	0.20882556
90	0xbdacbd55	-0.0843455
91	0xbd17ca34	-0.03705807
92	0xbd18c4bc	-0.037296996
93	0x3e1858de	0.1487765
94	0xbe3ef6e5	-0.1864887
95	0xbaa844a9	-0.0012837845
96	0x3e890a89	0.2676585
97	0xbe577447	-0.2104045
98	0x3d7148f5	0.058907468
99	0x3d66e095	0.056366522
100	0xbea153c1	-0.31509212
101	0x3e951881	0.29120257
102	0xbe91506f	-0.28381678
103	0x3d823177	0.06357091
104	0xbe91d86f	-0.28485438
105	0x3da373e4	0.07981089
106	0x3d9ea4d3	0.077462815
107	0x3eb11627	0.34587213
108	0xbd2b0bd6	-0.041759335
109	0xbeaf0c7e	-0.34189218
110	0x3ec74a11	0.38923696
111	0x3e367610	0.17818475
112	0x3e27a2ab	0.16370647
113	0x3df00009	0.11718757
114	0xbe51fb9f	-0.20506142
115	0xbd151d90	-0.036405146
116	0xbca09d73	-0.019606328
117	0x3d911c71	0.07085503
118	0x3dce00ee	0.10058771
119	0x3baa29c5	0.0051929676
120	0xbe05375b	-0.13009398
121	0xbde51f09	-0.1118756
122	0xbcc9e879	-0.024646984
123	0xbcd4b7d7	-0.025966568
124	0x3e914ea2	0.28380305
125	0xbdb68384	-0.08911803
126	0xbe945ac9	-0.28975514
127	0xbdab16f5	-0.08353988
128	0xbd723cb3	-0.05913992
129	0x3d4e296c	0.05033247
130	0xbed9aceb	-0.42514738
131	0xbe078e1d	-0.13237806
132	0x3e43bb73	0.19114475
133	0xbee5c2e5	-0.44875255
134	0xbe81402d	-0.25244275
135	0x3ec93463	0.3929778
136	0x3ed58e9c	0.41710365
137	0xbf034766	-0.5128082
138	0xbe5e5b2e	-0.2171447
139	0x3dcab91f	0.0989859
140	0xbe50fe6f	-0.20409559
141	0xbebdcec2	-0.37071806
142	0x3d4c9066	0.049942397
143	0x3e62c8e7	0.2214695
144	0x3e1da7ec	0.15396088
145	0x3e024547	0.1272174
146	0x3eae8e6f	0.34093043
147	0xbd96d6f5	-0.073652185
148	0x3e20b6da	0.15694752
149	0x3e797b1a	0.24363366
150	0xbd8aefd1	-0.067840226
151	0xbd243cbc	-0.040096983
152	0xbdcf7bd4	-0.1013104
153	0xbe047679	-0.12935819
154	0xbdc73738	-0.09727329
155	0xbcc44d07	-0.02396251
156	0x3de87664	0.11350706
157	0x3dfa9a72	0.12236489
158	0xbd1ede5a	-0.03878627
159	0x3d0cb088	0.03434804
160	0xbe1b0a07	-0.15140544
161	0xbe73220b	-0.23743455
162	0x3d96a4c4	0.07355645
163	0x387e2ba1	6.059895e-05
164	0x3d57e456	0.052707992
165	0xbd829500	-0.06376076
166	0x3da3444c	0.07972011
167	0x3d8beb9e	0.0683205
168	0x3d7604c9	0.060063157
169	0xbe004f1c	-0.12530178
170	0x3e3a3eef	0.1818807
171	0xbd83d067	-0.06436234
172	0xbecbcb7c	-0.39803684
173	0x3ef693b4	0.48159564
174	0x3d8a4db3	0.06753101
175	0xbe498538	-0.19679725
176	0x3df7d43a	0.12101026
177	0x3e0aea0b	0.13565843
178	0x3f007464	0.501776
179	0xbe22ba3e	-0.15891358
180	0xbe79cd6c	-0.24394768
181	0xbc93f7b5	-0.018062452
182	0xbe56f251	-0.20990874
183	0x3d01aa94	0.031656817
184	0xbd77b5b0	-0.060476005
185	0x3e1a03aa	0.1504046
186	0xbe327eb8	-0.17431152
187	0x3d12a6df	0.035803672
188	0xbe13462d	-0.14382239
189	0xbe8a5bfe	-0.2702331
190	0xbd351193	-0.044206213
191	0xbda45538	-0.08024067
192	0xbe15e634	-0.14638597
193	0xbd85de3b	-0.06536528
194	0xbe2662c7	-0.16248618
195	0xbd9bd163	-0.07608297
196	0x3e15341b	0.14570658
197	0xbe21e0e5	-0.15808447
198	0xbe8c39bc	-0.27387798
199	0xbda2c794	-0.07948223
200	0x3d9d445d	0.07679055
201	0x3e5368eb	0.20645492
202	0x3eb8dcb2	0.36105877
203	0xbe6bd501	-0.23030473
204	0xbe1af599	-0.1513275
205	0x3d8e1e5c	0.06939384
206	0x3edf0f47	0.43566343
207	0x3e7b9817	0.24569736
208	0xbe2574a2	-0.16157773
209	0xbd8af320	-0.06784654
210	0xbd40ad70	-0.047040403
211	0xbe2086bc	-0.15676397
212	0xbf032138	-0.5122256
213	0x3eab2263	0.33424672
214	0xbc133547	-0.00898487
215	0xbdd4a3d2	-0.10382809
216	0x3e822f8c	0.254269
217	0x3f0d44eb	0.55183285
218	0x3e5aff50	0.21386456
219	0x3e3a6440	0.18202305
220	0xbd4a113b	-0.04933284
221	0xbe9e407b	-0.3090857
222	0x3ee6f14f	0.4510598
223	0x3e597df0	0.21239448
224	0xbc0a6dec	-0.008449059
225	0xbe342c87	-0.17595111
226	0x3e697be6	0.2280117
227	0xbcf425bd	-0.029803151
228	0x3ede35bb	0.43400368
229	0x3daa182b	0.08305391
230	0x3d9ad33c	0.07559821
231	0x3e09765c	0.13424057
232	0xbef8b424	-0.48574936
233	0x3e3dd75e	0.18539187
234	0xbdffb323	-0.124853395
235	0xbeb20495	-0.3476912
236	0x3c1404c0	0.009034336
237	0x3e8e350f	0.27774855
238	0x3e686fde	0.22698924
239	0x3e112aed	0.14176531
240	0xbe802316	-0.25026768
241	0xbe93dba3	-0.28878507
242	0xbd0d5ea0	-0.03451407
243	0x3dabaeb2	0.0838293
244	0xbe7e5268	-0.24836123
245	0x3d6c903b	0.057754736
246	0x3e9d43a4	0.30715668
247	0x3dc929ac	0.098224014
248	0x3ed63079	0.41833857
249	0x3e63488b	0.22195642
250	0x3ed44d1a	0.41465074
251	0x3e20f40a	0.15718094
252	0xbe317c85	-0.17332657
253	0xbe849ee2	-0.25902468
254	0xbeb81aff	-0.35958096
255	0xbedcaed2	-0.43102127
